…
se, num_metadata=240, scalar=False, multi_concat=False, MLP=False, init_adv_training=False, advs=False, saliency=False)
2022-08-19 13:36:56,286 DeeperGCN(
  (gcns): ModuleList(
    (0): GENConv()
    (1): GENConv()
    (2): GENConv()
    (3): GENConv()
    (4): GENConv()
    (5): GENConv()
    (6): GENConv()
    (7): GENConv()
    (8): GENConv()
    (9): GENConv()
    (10): GENConv()
    (11): GENConv()
    (12): GENConv()
    (13): GENConv()
    (14): GENConv()
    (15): GENConv()
    (16): GENConv()
    (17): GENConv()
    (18): GENConv()
    (19): GENConv()
  )
  (norms): ModuleList(
    (0): BatchNorm1d(128, eps=1e-05, momentum=0.1, affine=True, track_running_stats=True)
    (1): BatchNorm1d(128, eps=1e-05, momentum=0.1, affine=True, track_running_stats=True)
    (2): BatchNorm1d(128, eps=1e-05, momentum=0.1, affine=True, track_running_stats=True)
    (3): BatchNorm1d(128, eps=1e-05, momentum=0.1, affine=True, track_running_stats=True)
    (4): BatchNorm1d(128, eps=1e-05, momentum=0.1, affine=True, track_running_stats=True)
    (5): BatchNorm1d(128, eps=1e-05, momentum=0.1, affine=True, track_running_stats=True)
    (6): BatchNorm1d(128, eps=1e-05, momentum=0.1, affine=True, track_running_stats=True)
    (7): BatchNorm1d(128, eps=1e-05, momentum=0.1, affine=True, track_running_stats=True)
    (8): BatchNorm1d(128, eps=1e-05, momentum=0.1, affine=True, track_running_stats=True)
    (9): BatchNorm1d(128, eps=1e-05, momentum=0.1, affine=True, track_running_stats=True)
    (10): BatchNorm1d(128, eps=1e-05, momentum=0.1, affine=True, track_running_stats=True)
    (11): BatchNorm1d(128, eps=1e-05, momentum=0.1, affine=True, track_running_stats=True)
    (12): BatchNorm1d(128, eps=1e-05, momentum=0.1, affine=True, track_running_stats=True)
    (13): BatchNorm1d(128, eps=1e-05, momentum=0.1, affine=True, track_running_stats=True)
    (14): BatchNorm1d(128, eps=1e-05, momentum=0.1, affine=True, track_running_stats=True)
    (15): BatchNorm1d(128, eps=1e-05, momentum=0.1, affine=True, track_running_stats=True)
    (16): BatchNorm1d(128, eps=1e-05, momentum=0.1, affine=True, track_running_stats=True)
    (17): BatchNorm1d(128, eps=1e-05, momentum=0.1, affine=True, track_running_stats=True)
    (18): BatchNorm1d(128, eps=1e-05, momentum=0.1, affine=True, track_running_stats=True)
    (19): BatchNorm1d(128, eps=1e-05, momentum=0.1, affine=True, track_running_stats=True)
  )
  (atom_encoder): AtomEncoder(
    (atom_embedding_list): ModuleList(
      (0): Embedding(119, 128)
      (1): Embedding(4, 128)
      (2): Embedding(12, 128)
      (3): Embedding(12, 128)
      (4): Embedding(10, 128)
      (5): Embedding(6, 128)
      (6): Embedding(6, 128)
      (7): Embedding(2, 128)
      (8): Embedding(2, 128)
    )
  )
  (graph_pred_linear): Linear(in_features=128, out_features=2, bias=True)
)
2022-08-19 13:36:56,290 =====Epoch 1
2022-08-19 13:36:56,290 Training...
2022-08-19 13:36:56,290 Evaluating First Epoch...
2022-08-19 13:36:59,303 Valid:Loss 0.6939762830734253, ACC 0.9750922918319702, AUC 0.3782192788815305, F-Measure 0.048736462093862815, NAP 0.019042318570758804
2022-08-19 13:37:30,670 Namespace(seed=1, dataset='ogbg-molhiv', num_wo
…
ng=False, advs=False, saliency=False)
2022-08-19 15:43:10,866 SuperDeeperGCN(
  (molecule_gcn): DeeperGCN(
    (gcns): ModuleList(
      (0): GENConv()
      (1): GENConv()
      (2): GENConv()
      (3): GENConv()
      (4): GENConv()
      (5): GENConv()
      (6): GENConv()
      (7): GENConv()
      (8): GENConv()
      (9): GENConv()
      (10): GENConv()
      (11): GENConv()
      (12): GENConv()
      (13): GENConv()
      (14): GENConv()
      (15): GENConv()
      (16): GENConv()
      (17): GENConv()
      (18): GENConv()
      (19): GENConv()
    )
    (norms): ModuleList(
      (0): BatchNorm1d(128, eps=1e-05, momentum=0.1, affine=True, track_running_stats=True)
      (1): BatchNorm1d(128, eps=1e-05, momentum=0.1, affine=True, track_running_stats=True)
      (2): BatchNorm1d(128, eps=1e-05, momentum=0.1, affine=True, track_running_stats=True)
      (3): BatchNorm1d(128, eps=1e-05, momentum=0.1, affine=True, track_running_stats=True)
      (4): BatchNorm1d(128, eps=1e-05, momentum=0.1, affine=True, track_running_stats=True)
      (5): BatchNorm1d(128, eps=1e-05, momentum=0.1, affine=True, track_running_stats=True)
      (6): BatchNorm1d(128, eps=1e-05, momentum=0.1, affine=True, track_running_stats=True)
      (7): BatchNorm1d(128, eps=1e-05, momentum=0.1, affine=True, track_running_stats=True)
      (8): BatchNorm1d(128, eps=1e-05, momentum=0.1, affine=True, track_running_stats=True)
      (9): BatchNorm1d(128, eps=1e-05, momentum=0.1, affine=True, track_running_stats=True)
      (10): BatchNorm1d(128, eps=1e-05, momentum=0.1, affine=True, track_running_stats=True)
      (11): BatchNorm1d(128, eps=1e-05, momentum=0.1, affine=True, track_running_stats=True)
      (12): BatchNorm1d(128, eps=1e-05, momentum=0.1, affine=True, track_running_stats=True)
      (13): BatchNorm1d(128, eps=1e-05, momentum=0.1, affine=True, track_running_stats=True)
      (14): BatchNorm1d(128, eps=1e-05, momentum=0.1, affine=True, track_running_stats=True)
      (15): BatchNorm1d(128, eps=1e-05, momentum=0.1, affine=True, track_running_stats=True)
      (16): BatchNorm1d(128, eps=1e-05, momentum=0.1, affine=True, track_running_stats=True)
      (17): BatchNorm1d(128, eps=1e-05, momentum=0.1, affine=True, track_running_stats=True)
      (18): BatchNorm1d(128, eps=1e-05, momentum=0.1, affine=True, track_running_stats=True)
      (19): BatchNorm1d(128, eps=1e-05, momentum=0.1, affine=True, track_running_stats=True)
    )
    (atom_encoder): AtomEncoder(
      (atom_embedding_list): ModuleList(
        (0): Embedding(119, 128)
        (1): Embedding(4, 128)
        (2): Embedding(12, 128)
        (3): Embedding(12, 128)
        (4): Embedding(10, 128)
        (5): Embedding(6, 128)
        (6): Embedding(6, 128)
        (7): Embedding(2, 128)
        (8): Embedding(2, 128)
      )
    )
    (graph_pred_linear): Linear(in_features=128, out_features=2, bias=True)
  )
  (target_gcn): DeeperGCN(
    (gcns): ModuleList(
      (0): GENConv()
      (1): GENConv()
      (2): GENConv()
      (3): GENConv()
      (4): GENConv()
      (5): GENConv()
      (6): GENConv()
      (7): GENConv()
      (8): GENConv()
      (9): GENConv()
      (10): GENConv()
      (11): GENConv()
      (12): GENConv()
      (13): GENConv()
      (14): GENConv()
      (15): GENConv()
      (16): GENConv()
      (17): GENConv()
      (18): GENConv()
      (19): GENConv()
    )
    (norms): ModuleList(
      (0): BatchNorm1d(128, eps=1e-05, momentum=0.1, affine=True, track_running_stats=True)
      (1): BatchNorm1d(128, eps=1e-05, momentum=0.1, affine=True, track_running_stats=True)
      (2): BatchNorm1d(128, eps=1e-05, momentum=0.1, affine=True, track_running_stats=True)
      (3): BatchNorm1d(128, eps=1e-05, momentum=0.1, affine=True, track_running_stats=True)
      (4): BatchNorm1d(128, eps=1e-05, momentum=0.1, affine=True, track_running_stats=True)
      (5): BatchNorm1d(128, eps=1e-05, momentum=0.1, affine=True, track_running_stats=True)
      (6): BatchNorm1d(128, eps=1e-05, momentum=0.1, affine=True, track_running_stats=True)
      (7): BatchNorm1d(128, eps=1e-05, momentum=0.1, affine=True, track_running_stats=True)
      (8): BatchNorm1d(128, eps=1e-05, momentum=0.1, affine=True, track_running_stats=True)
      (9): BatchNorm1d(128, eps=1e-05, momentum=0.1, affine=True, track_running_stats=True)
      (10): BatchNorm1d(128, eps=1e-05, momentum=0.1, affine=True, track_running_stats=True)
      (11): BatchNorm1d(128, eps=1e-05, momentum=0.1, affine=True, track_running_stats=True)
      (12): BatchNorm1d(128, eps=1e-05, momentum=0.1, affine=True, track_running_stats=True)
      (13): BatchNorm1d(128, eps=1e-05, momentum=0.1, affine=True, track_running_stats=True)
      (14): BatchNorm1d(128, eps=1e-05, momentum=0.1, affine=True, track_running_stats=True)
      (15): BatchNorm1d(128, eps=1e-05, momentum=0.1, affine=True, track_running_stats=True)
      (16): BatchNorm1d(128, eps=1e-05, momentum=0.1, affine=True, track_running_stats=True)
      (17): BatchNorm1d(128, eps=1e-05, momentum=0.1, affine=True, track_running_stats=True)
      (18): BatchNorm1d(128, eps=1e-05, momentum=0.1, affine=True, track_running_stats=True)
      (19): BatchNorm1d(128, eps=1e-05, momentum=0.1, affine=True, track_running_stats=True)
    )
    (atom_encoder): AtomEncoder(
      (atom_embedding_list): ModuleList(
        (0): Embedding(119, 128)
        (1): Embedding(4, 128)
        (2): Embedding(12, 128)
        (3): Embedding(12, 128)
        (4): Embedding(10, 128)
        (5): Embedding(6, 128)
        (6): Embedding(6, 128)
        (7): Embedding(2, 128)
        (8): Embedding(2, 128)
      )
    )
    (bond_encoder): BondEncoder(
      (bond_embedding_list): ModuleList(
        (0): Embedding(5, 128)
        (1): Embedding(6, 128)
        (2): Embedding(2, 128)
      )
    )
    (graph_pred_linear): Linear(in_features=128, out_features=2, bias=True)
  )
  (concatenation_gcn): Linear(in_features=256, out_features=128, bias=True)
  (classification): Linear(in_features=128, out_features=2, bias=True)
)
2022-08-19 15:43:10,870 =====Epoch 1
2022-08-19 15:43:10,870 Training...
2022-08-19 15:43:10,870 Evaluating First Epoch...
2022-08-19 15:43:51,091 Namespace(seed=1, num_workers=0, batch_size=512, feature='full', add_virtual_node=False, use_gpu=True, device=0, epochs=20, lr=5e-05, dropout=0.2, num_layers=20, mlp_layers=3, hidden_channels=128, block='res
…
